…
":-330,"elapsed":1191,"user":{"displayName":"Hariharan S","photoUrl":"https://lh3.googleusercontent.com/a-/AOh14Gj54JJCqGON5hm1gltkqJNTL5-YfKs7hwrqeQZJPQ=s64","userId":"10376317834216671317"}},"outputId":"9f44c711-f375-4393-863e-8ae963593332"},"source":["model.summary()"],"execution_count":39,"outputs":[{"output_type":"stream","text":["Model: \"model_2\"\n","_________________________________________________________________\n","Layer (type)                 Output Shape              Param #   \n","=================================================================\n","input_1 (InputLayer)         (None, 128, 128, 3)       0         \n","_________________________________________________________________\n","block1_conv1 (Conv2D)        (None, 128, 128, 64)      1792      \n","_________________________________________________________________\n","block1_conv2 (Conv2D)        (None, 128, 128, 64)      36928     \n","_________________________________________________________________\n","block1_pool (MaxPooling2D)   (None, 64, 64, 64)        0         \n","_________________________________________________________________\n","block2_conv1 (Conv2D)        (None, 64, 64, 128)       73856     \n","_________________________________________________________________\n","block2_conv2 (Conv2D)        (None, 64, 64, 128)       147584    \n","_________________________________________________________________\n","block2_pool (MaxPooling2D)   (None, 32, 32, 128)       0         \n","_________________________________________________________________\n","block3_conv1 (Conv2D)        (None, 32, 32, 256)       295168    \n","_________________________________________________________________\n","block3_conv2 (Conv2D)        (None, 32, 32, 256)       590080    \n","_________________________________________________________________\n","block3_conv3 (Conv2D)        (None, 32, 32, 256)       590080    \n","_________________________________________________________________\n","block3_pool (MaxPooling2D)   (None, 16, 16, 256)       0         \n","_________________________________________________________________\n","block4_conv1 (Conv2D)        (None, 16, 16, 512)       1180160   \n","_________________________________________________________________\n","block4_conv2 (Conv2D)        (None, 16, 16, 512)       2359808   \n","_________________________________________________________________\n","block4_conv3 (Conv2D)        (None, 16, 16, 512)       2359808   \n","_________________________________________________________________\n","block4_pool (MaxPooling2D)   (None, 8, 8, 512)         0         \n","_________________________________________________________________\n","block5_conv1 (Conv2D)        (None, 8, 8, 512)         2359808   \n","_________________________________________________________________\n","block5_conv2 (Conv2D)        (None, 8, 8, 512)         2359808   \n","_________________________________________________________________\n","block5_conv3 (Conv2D)        (None, 8, 8, 512)         2359808   \n","_________________________________________________________________\n","block5_pool (MaxPooling2D)   (None, 4, 4, 512)         0         \n","_________________________________________________________________\n","flatten_2 (Flatten)          (None, 8192)              0         \n","_________________________________________________________________\n","dense_5 (Dense)              (None, 1024)              8389632   \n","_________________________________________________________________\n","dropout_2 (Dropout)          (None, 1024)              0         \n","_________________________________________________________________\n","dense_6 (Dense)              (None, 512)               524800    \n","_________________________________________________________________\n","dense_7 (Dense)              (None, 256)               131328    \n","_________________________________________________________________\n","dense_8 (Dense)              (None, 102)               26214     \n","=================================================================\n","Total params: 23,786,662\n","Trainable params: 23,786,662\n","Non-trainable params: 0\n","_________________________________________________________________\n"],"name":"stdout"}]},{"cell_type":"code","metadata":{"id":"-Xx_r_ezDClC","colab_type":"code","colab":{},"executionInfo":{"status":"ok","timestamp":1594309088992,"
…
