…
":-330,"elapsed":1015,"user":{"displayName":"Hariharan S","photoUrl":"https://lh3.googleusercontent.com/a-/AOh14Gj54JJCqGON5hm1gltkqJNTL5-YfKs7hwrqeQZJPQ=s64","userId":"10376317834216671317"}},"outputId":"854edeb2-2fc1-49e2-aebf-a31d548e8de7"},"source":["model.summary()"],"execution_count":28,"outputs":[{"output_type":"stream","text":["Model: \"model_2\"\n","_________________________________________________________________\n","Layer (type)                 Output Shape              Param #   \n","=================================================================\n","input_1 (InputLayer)         (None, 128, 128, 3)       0         \n","_________________________________________________________________\n","block1_conv1 (Conv2D)        (None, 128, 128, 64)      1792      \n","_________________________________________________________________\n","block1_conv2 (Conv2D)        (None, 128, 128, 64)      36928     \n","_________________________________________________________________\n","block1_pool (MaxPooling2D)   (None, 64, 64, 64)        0         \n","_________________________________________________________________\n","block2_conv1 (Conv2D)        (None, 64, 64, 128)       73856     \n","_________________________________________________________________\n","block2_conv2 (Conv2D)        (None, 64, 64, 128)       147584    \n","_________________________________________________________________\n","block2_pool (MaxPooling2D)   (None, 32, 32, 128)       0         \n","_________________________________________________________________\n","block3_conv1 (Conv2D)        (None, 32, 32, 256)       295168    \n","_________________________________________________________________\n","block3_conv2 (Conv2D)        (None, 32, 32, 256)       590080    \n","_________________________________________________________________\n","block3_conv3 (Conv2D)        (None, 32, 32, 256)       590080    \n","_________________________________________________________________\n","block3_pool (MaxPooling2D)   (None, 16, 16, 256)       0         \n","_________________________________________________________________\n","flatten_2 (Flatten)          (None, 65536)             0         \n","_________________________________________________________________\n","dense_5 (Dense)              (None, 256)               16777472  \n","_________________________________________________________________\n","dropout_2 (Dropout)          (None, 256)               0         \n","_________________________________________________________________\n","dense_6 (Dense)              (None, 128)               32896     \n","_________________________________________________________________\n","dense_7 (Dense)              (None, 50)                6450      \n","_________________________________________________________________\n","dense_8 (Dense)              (None, 11)                561       \n","=================================================================\n","Total params: 18,552,867\n","Trainable params: 18,552,867\n","Non-trainable params: 0\n","_________________________________________________________________\n"],"name":"stdout"}]},{"cell_type":"code","metadata":{"id":"-Xx_r_ezDClC","colab_type":"code","colab":{},"executionInfo":{"status":"ok","timestamp":1592326343701
…
