…
":-330,"elapsed":1324,"user":{"displayName":"Hariharan S","photoUrl":"https://lh3.googleusercontent.com/a-/AOh14Gj54JJCqGON5hm1gltkqJNTL5-YfKs7hwrqeQZJPQ=s64","userId":"10376317834216671317"}},"outputId":"b9afc6ca-23b6-4d76-9b5a-b92fc72cc031"},"source":["model.summary()"],"execution_count":24,"outputs":[{"output_type":"stream","text":["Model: \"model_1\"\n","_________________________________________________________________\n","Layer (type)                 Output Shape              Param #   \n","=================================================================\n","input_1 (InputLayer)         (None, 128, 128, 3)       0         \n","_________________________________________________________________\n","block1_conv1 (Conv2D)        (None, 128, 128, 64)      1792      \n","_________________________________________________________________\n","block1_conv2 (Conv2D)        (None, 128, 128, 64)      36928     \n","_________________________________________________________________\n","block1_pool (MaxPooling2D)   (None, 64, 64, 64)        0         \n","_________________________________________________________________\n","block2_conv1 (Conv2D)        (None, 64, 64, 128)       73856     \n","_________________________________________________________________\n","block2_conv2 (Conv2D)        (None, 64, 64, 128)       147584    \n","_________________________________________________________________\n","block2_pool (MaxPooling2D)   (None, 32, 32, 128)       0         \n","_________________________________________________________________\n","block3_conv1 (Conv2D)        (None, 32, 32, 256)       295168    \n","_________________________________________________________________\n","block3_conv2 (Conv2D)        (None, 32, 32, 256)       590080    \n","_________________________________________________________________\n","block3_conv3 (Conv2D)        (None, 32, 32, 256)       590080    \n","_________________________________________________________________\n","block3_pool (MaxPooling2D)   (None, 16, 16, 256)       0         \n","_________________________________________________________________\n","flatten_1 (Flatten)          (None, 65536)             0         \n","_________________________________________________________________\n","dense_1 (Dense)              (None, 1024)              67109888  \n","_________________________________________________________________\n","dropout_1 (Dropout)          (None, 1024)              0         \n","_________________________________________________________________\n","dense_2 (Dense)              (None, 101)               103525    \n","=================================================================\n","Total params: 68,948,901\n","Trainable params: 68,948,901\n","Non-trainable params: 0\n","_________________________________________________________________\n"],"name":"stdout"}]},{"cell_type":"code","metadata":{"id":"-Xx_r_ezDClC","colab_type":"code","colab":{},"executionInfo":{"status":"ok","timestamp":1595948444010,"u
…
